models/binary_classification_model.pth (torch, 2800 bytes, 3 tensors)

lin1.weight f4 [10, 11]
000000 c1 6f b8 3d 05 f3 8f 3e b0 64 23 bd 84 93 25 be
       0.0900569 0.28115097 -0.039890945 -0.16169554
000010 0b f5 47 bd cb f0 86 bd d8 ca 0f be f9 7b 7f 3e
       -0.048817676 -0.06588896 -0.14042222 0.24949636
000020 bf 70 cd 3e 83 ab 47 be b7 b9 ef 3e d5 cf 4e 3e
       0.4012508 -0.1949902 0.46821377 0.20196469
000030 c4 10 84 bd 80 b0 af 3b 32 98 08 3e 69 a1 95 be
       -0.0644851 0.0053616166 0.13339308 -0.2922471
000040 3e 59 75 be 6a be 26 3e 14 25 61 be 59 81 7c 3e
       -0.23959824 0.16283575 -0.219868 0.24658717
000050 00 da ee 3d 7a ea 3d 3e d1 72 89 3e a6 6d 81 3e
       0.11662674 0.18546477 0.2684541 0.25278968
000060 d7 15 9b 3e bb a6 36 3d b4 80 88 be 46 31 d8 bd
       0.302901 0.0445926 -0.26660693 -0.10556273
000070 04 cd 04 3e 63 22 6c be 83 c2 5e 3c 6a 77 30 3e
       0.12968832 -0.23059992 0.01359618 0.17233053
000080 6c 11 43 3e 7c ef 63 be 80 31 01 3b fc ad 06 3e
       0.19049615 -0.22259325 0.0019713342 0.13152307
000090 a8 1c b3 bd 80 79 22 3d 25 20 e2 3c 00 fe 7e 3a
       -0.087457 0.039666653 0.027603218 0.000972718
0000a0 04 a5 c5 bd 1c 1c bd bd 96 fb 33 3e 06 5a e6 bd
       -0.09650615 -0.09233877 0.17576441 -0.11247639
0000b0 a0 d0 24 bd e7 c6 64 be 74 2d 8a be 36 e4 3c be
       -0.040238023 -0.223415 -0.26987803 -0.1844643
0000c0 00 21 8b ba 4b d4 83 be d4 46 15 3e 5c 76 bd 3d
       -0.0010614693 -0.25747904 0.145778 0.09251091
0000d0 e1 3c 2d be b4 56 ab 3d bc 9f 4f 3e 7a 48 e4 bd
       -0.16917755 0.08366147 0.20275778 -0.11146636
0000e0 cc 01 8b 3e 5e aa 73 3e 40 69 0b bc d0 e2 06 be
       0.27149808 0.23795459 -0.00850898 -0.1317246
0000f0 d6 89 2c 3e b0 ed c2 bc 40 7a ab bc 26 28 13 be
       0.16849455 -0.023794979 -0.020932317 -0.14370784
000100 d4 74 ea bd 8a 3e d0 bd 6c ed 98 3e 6e 8d 6d 3e
       -0.114480644 -0.101681784 0.2986864 0.23198482
000110 d0 d7 4b bd c2 f3 28 be 02 b7 d6 bc b9 b2 1d bd
       -0.04976636 -0.16499236 -0.026210312 -0.03850052
000120 44 57 37 3e 9d 51 89 3c 09 c8 80 be 30 a1 1e be
       0.17904383 0.016762549 -0.25152615 -0.15491176
000130 45 42 6a be 42 38 ab bd e7 e1 15 3e b1 28 05 3e
       -0.22876842 -0.0836034 0.14636956 0.13003804
000140 13 97 25 3c 09 e7 58 be 94 3d 42 3e 10 41 96 3d
       0.01010682 -0.21181883 0.18968803 0.073366284
000150 a8 af f8 3d db b7 2b 3e 20 62 18 3e 12 59 85 be
       0.12142879 0.16769354 0.14881182 -0.26044518
000160 13 6d 2a 3d 56 17 19 bd ac 64 96 be e4 f5 88 be
       0.041607928 -0.03737577 -0.29373682 -0.267501
000170 5d 23 bc 3e 1f b0 07 3f f2 c9 ce bd ec 4a 3e be
       0.3674573 0.53003114 -0.10097112 -0.18583268
000180 c1 01 87 be 80 e2 43 bc 0b bc 88 be e8 4d 90 3d
       -0.26368526 -0.011955857 -0.26705965 0.070461094
000190 62 16 12 be a8 88 89 3e 38 3d c3 bd 16 3f 59 be
       -0.14266351 0.26862073 -0.09533161 -0.21215472
0001a0 30 ff 4c bd 72 04 1c be e2 3a 11 be b6 4a 26 3e
       -0.050048053 -0.15236071 -0.14182618 0.16239437
0001b0 7c c9 65 be 97 b5 8d be
       -0.22440141 -0.27677605

lin1.bias f4 [10]
000000 0d 47 8a 3d 10 84 8d be fb 1f 8b be eb c2 0a be
       0.06751833 -0.27639818 -0.27172837 -0.13550918
000010 0b cd 63 be 68 2d 88 be 24 9d fb 3c 4e 2f a7 3e
       -0.22246186 -0.26597142 0.030714579 0.32653278
000020 ca ca 8c 3e 58 9b 8e be
       0.27498466 -0.27852893

lin2.weight f4 [1, 10]
000000 85 1c ea 3e f2 6d fe bd e6 21 c2 bd b4 e4 98 3e
       0.45724884 -0.12423314 -0.09479122 0.29861987
000010 18 3f 82 bd 6a 7e 32 3e 6b fe 9f 3e a6 b3 59 bc
       -0.063596904 0.17431036 0.31248793 -0.01328746
000020 b6 76 3b bf a6 76 53 3e
       -0.73228014 0.2065073
