models/multi_class_classification_model.pth (torch, 3096 bytes, 4 tensors)

lin1.weight f4 [10, 11]
0	0x3d37d70e	0.044882827
1	0xbe98d698	-0.29851222
2	0xbc97a057	-0.018509073
3	0xbe676ab8	-0.22599304
4	0x3c3a2e61	0.011363597
5	0x3dcb7134	0.09933701
6	0xbde8ddf0	-0.11370456
7	0xbe0b47ea	-0.13601652
8	0x3df182f0	0.117925525
9	0x3db1582f	0.08659398
10	0x3e464821	0.19363452
11	0xbedd06d7	-0.4316928
12	0x3e673833	0.22580032
13	0x3f475e5c	0.77878356
14	0x3e11974a	0.14217868
15	0xbf02d939	-0.51112705
16	0xbe5cd0e6	-0.21564063
17	0x3b0e1f80	0.0021686256
18	0x3f1d0cfc	0.6134794
19	0x3d8c8430	0.0686115
20	0x3eb17dfc	0.3466643
21	0x3dfc717b	0.12326332
22	0x3e696d71	0.22795655
23	0x3e57ddd4	0.21080714
24	0x3e13e385	0.1444226
25	0x3e3957b7	0.18099867
26	0xbdb77919	-0.089586444
27	0x3e925fc4	0.28588688
28	0xbe3c1133	-0.18365936
29	0x3d090c6c	0.033459112
30	0xbe44ea16	-0.19229922
31	0x3d692653	0.056921314
32	0xbe145d24	-0.14488655
33	0x3e8c8cf7	0.27451298
34	0xbdfcdb99	-0.123465724
35	0x3e55a40a	0.20863357
36	0xbe781028	-0.24224913
37	0xbd72e46e	-0.05929988
38	0x3d09b5e7	0.03362074
39	0x3e6b5254	0.22980624
40	0xbe23a4c7	-0.15980826
41	0xbd4b0538	-0.049565524
42	0xbd650c5f	-0.05592
43	0x3d9d6732	0.076856986
44	0xbe179308	-0.14802182
45	0xbd2953b7	-0.041339602
46	0x3de53462	0.11191632
47	0xbe97df18	-0.29662395
48	0x3dec090f	0.11525165
49	0xbe9a7b6d	-0.3017229
50	0xbe4a4372	-0.19752291
51	0xbe591aeb	-0.21201675
52	0xbe69bb8c	-0.2282545
53	0x3e2b1354	0.16706592
54	0x3e8856fa	0.26628858
55	0xbebd9b13	-0.37032375
56	0x3bb27b6d	0.0054468424
57	0x3ea31477	0.3185155
58	0x3d7c9a85	0.0616708
59	0xbec00ec7	-0.37511274
60	0x3e04373b	0.12911694
61	0xbe0b03e0	-0.13575697
62	0x3ed689ef	0.4190211
63	0x3e31d08c	0.1736471
64	0x3d6728df	0.056435462
65	0x3e3ba3d6	0.18324217
66	0x3dbddc28	0.09270507
67	0xbd2965a0	-0.041356683
68	0xbdc94575	-0.09827701
69	0xbe994a3a	-0.29939443
70	0xbe8aef2e	-0.27135605
71	0x3e6f5d71	0.23375489
72	0xbe658bd8	-0.22416627
73	0x3de732fe	0.11289023
74	0x3def397c	0.11680886
75	0x3ea36de2	0.3191977
76	0x3e015ba6	0.12632617
77	0xbe1c88b7	-0.15286528
78	0x3e8e23d8	0.27761722
79	0xbe94b596	-0.2904479
80	0x3e76019c	0.24024051
81	0x3dcafac9	0.09911115
82	0x3e6898cd	0.22714539
83	0x3dcfebdc	0.101524085
84	0x3de29c6e	0.11064993
85	0xbd0bb070	-0.03410381
86	0xbe8c8d93	-0.27451763
87	0xbaa54d00	-0.0012611449
88	0xbdff6ebe	-0.12472294
89	0x3e8db556	0.2767741
90	0xbd294158	-0.041322082
91	0x3e0132a2	0.12616971
92	0xbe360df0	-0.17778754
93	0xbe6c722f	-0.23090433
94	0x3e620308	0.22071469
95	0x3e0149c2	0.12625793
96	0xbe3b58da	-0.18295613
97	0xbe884106	-0.2661211
98	0x3e82c8cd	0.25543824
99	0x3ca9ad49	0.020712512
100	0x3db20692	0.086926594
101	0xbe65523a	-0.22394648
102	0xbe773c80	-0.24144173
103	0x3f354344	0.70805764
104	0xbc7278b6	-0.014799288
105	0xbd33b928	-0.04387775
106	0xbe17bf97	-0.1481918
107	0x3d255b50	0.040370286
108	0xbd9453ed	-0.0724257
109	0xbe0a1fa4	-0.13488632

lin1.bias f4 [10]
0	0xbd37fb55	-0.044917423
1	0x3f04b1af	0.51833624
2	0xbe35c160	-0.17749548
3	0x3ef6faf7	0.48238346
4	0x3e7433bc	0.2384786
5	0x3ec53675	0.3851811
6	0xbe3b3803	-0.18283086
7	0xbde541e8	-0.11194211
8	0xbe01be03	-0.1267014
9	0x3ebc03fa	0.36721784

lin2.weight f4 [5, 10]
0	0x3d015c64	0.03158225
1	0xbf20d790	-0.6282892
2	0xbe1ace5c	-0.15117782
3	0x3e8e814e	0.27833027
4	0x3db81091	0.08987535
5	0xbf043097	-0.5163664
6	0x3e3a96fc	0.18221658
7	0x3dd93f96	0.10607831
8	0x3cb2bf5d	0.021819765
9	0x3f243e37	0.6415743
10	0x3e5e6d09	0.21721281
11	0xbf099974	-0.53749776
12	0x3e90725c	0.2821225
13	0xbd62a4d6	-0.05533298
14	0xbec85f78	-0.39135337
15	0xbcdb28de	-0.026752885
16	0x3e178260	0.14795828
17	0x3e4a2fb9	0.19744767
18	0xbe738916	-0.23782763
19	0xbe8d74e0	-0.2762823
20	0x3e364634	0.17800218
21	0xbe5d4845	-0.216096
22	0x3e17af47	0.14812957
23	0xbe91c65d	-0.28471652
24	0xbd43212b	-0.047639053
25	0xbd9f8e07	-0.077907614
26	0xbdd6d8c9	-0.10490567
27	0x3e8d3eb8	0.27586913
28	0x3d609ab7	0.054835048
29	0x3d3b07f7	0.045661893
30	0x3e80efac	0.25182855
31	0x3e23637b	0.15955918
32	0xbda66169	-0.08124048
33	0xbe385908	-0.18002713
34	0x3dba909a	0.09109612
35	0x3e3ddb18	0.18540609
36	0x3e94a47b	0.2903174
37	0xbe8d56fe	-0.27605432
38	0xbe54270c	-0.2071802
39	0xbe7d6185	-0.24744232
40	0x3e4e5f78	0.20153606
41	0x3f8a8821	1.0822793
42	0xbc16050e	-0.009156479
43	0x3d44309d	0.047897924
44	0xbcc4fc69	-0.02404614
45	0x3f1d1c35	0.61371166
46	0x3e0f24a4	0.13978821
47	0x3d767be2	0.060176738
48	0xbe85af81	-0.2611046
49	0xbf061185	-0.5237048

lin2.bias f4 [5]
0	0x3ec038c1	0.375433
1	0xbeff9e7c	-0.499256
2	0xbf231a4a	-0.6371199
3	0xbef330e7	-0.47498247
4	0x3fbf8f44	1.4965596
