models/regression_model.pth (torch, 2584 bytes, 3 tensors)

lin1.weight f4 [10, 11]
00000000: ca8d fc3c 5313 033e ab24 89be b0c9 82bd
00000010: a6b7 dcbe f856 6e3c eadc b5bd 18e6 5dbe
00000020: c623 cdbd c879 5fbd dd36 f33e 8bbf 2d3e
00000030: ed96 8f3e 0d58 ac3d 1f95 903e 1c7c 143e
00000040: d173 84be 68bd 48be d809 9abe ed9f b6bc
00000050: c0b9 b83d 9c16 06be d691 ffbd 6076 f13c
00000060: 7e85 ecbd cf9f 92be 5c65 3dbe cf76 79be
00000070: 02cf c7bd 1338 1fbe 8bdd 8cbe 2c0a cc3d
00000080: 02e9 7b3e e0d9 2ebc b098 af3c a497 3abe
00000090: 1094 983d b091 983d b8a0 fdbd 0e15 09be
000000a0: 38bd d63d 5440 98be 247d d23d 8894 023d
000000b0: 41b8 473e 5baf 5fbe 0c38 6cbe e802 ce3d
000000c0: 1c41 513e 98c5 993e 0890 11be e02b 4d3e
000000d0: 312b 04bd ac16 743e 6437 803d 0450 18bf
000000e0: 5135 bfbe ddf2 7d3d 40ed 9e3e 2201 eabe
000000f0: 1d7e b73e 90a6 84bd 6ac4 1ebf f1ce 1e3f
00000100: b8f5 4ebd e8f8 933e f6bc 04bf 1308 c83d
00000110: c382 45be e928 293f 8a14 39bf 0de8 193f
00000120: f4e4 583e 90e7 1abf 5d33 e83e 5070 213e
00000130: 35d0 ec3e fbd9 9f3d 58d1 913d fefd e0bd
00000140: c703 cfbd 7270 9cbd 82b2 5f3e 40ad 303e
00000150: 008d a93b c7df 0cbe 4a2a 67be 84f7 123e
00000160: fbd5 0bbe 6006 1e3c 029a 51be 28fd 88be
00000170: 5c02 f63d f0c3 943d 88c7 4c3e b8a2 11bd
00000180: e07a 133e eaee 5cbe c5c4 63bd 0efd 8ebe
00000190: dedc 36bc 63c3 b23d d82e 9ebe 4757 133f
000001a0: fe86 fbbd 603b 1cbd 1bf1 b93e 4091 30be
000001b0: 70a7 7b3e e7e2 32be
0.030829329 0.1280034 -0.26785788 -0.06386125 -0.43108863 0.014547102 -0.08880027 -0.21669805
-0.10016589 -0.0545595 0.47502795 0.16967599 0.28044835 0.08415232 0.2823877 0.14500469
-0.2586961 -0.19603503 -0.30085635 -0.022293055 0.09019804 -0.13094562 -0.12478988 0.02947539
-0.11548899 -0.2863755 -0.18495697 -0.24361728 -0.097562805 -0.15548734 -0.27512774 0.09962878
0.24600604 -0.010672063 0.021435112 -0.18221909 0.07450116 0.07449663 -0.1238417 -0.13386938
0.10485309 -0.29736578 0.10277775 0.03187993 0.19503881 -0.21844237 -0.23068255 0.10059148
0.20434994 0.30033565 -0.142151 0.20036268 -0.032267753 0.23836774 0.06260565 -0.59497094
-0.37345365 0.06199919 0.31040382 -0.4570399 0.35838404 -0.06477082 -0.62018454 0.6203452
-0.050527304 0.28900838 -0.5185083 0.09767165 -0.19288163 0.6607805 -0.72296965 0.60119706
0.21181089 -0.60509586 0.45351687 0.157655 0.462526 0.07805248 0.07120007 -0.10985945
-0.10108142 -0.07638635 0.21845439 0.1725359 0.005174279 -0.1375724 -0.22574726 0.14352232
-0.13655846 0.009645075 -0.20468906 -0.26755643 0.12012169 0.072639346 0.1999799 -0.03555557
0.14402342 -0.21575513 -0.055607576 -0.2792744 -0.011161057 0.08728673 -0.30895114 0.5755505
-0.12281607 -0.038142562 0.3631676 -0.17242908 0.24575591 -0.17469369

lin1.bias f4 [10]
00000000: e2a5 a53e b3c9 933e 48fe 82be b427 6dbe
00000010: 9f2a 53be 9543 163f 7d9d 2a3f 6743 a0bd
00000020: fccb 6abe e0a8 123e
0.3235312 0.28864822 -0.25584626 -0.23159677 -0.20621727 0.5869687 0.6664656 -0.07825356
-0.22929376 0.14322233

lin2.weight f4 [1, 10]
00000000: 9592 f93e 824f e53c 3642 bcbd f0b2 a23c
00000010: c591 5c3e 1e67 9f3f e1b0 c23f 9af8 463d
00000020: 4b9c 93be 13dd 33bf
0.48744646 0.027992014 -0.09192316 0.019860715 0.21539982 1.2453344 1.5210229 0.04857693
-0.2883018 -0.7025921
